data.pth (torch, 6167 bytes, 6 tensors)

l1.weight f4 [8, 66]
-0.20871481 0.58236355 -0.7484793 1.1483243 0.48743132 0.030024592 -0.24446137 -0.13781533
-0.13659953 1.627255 -0.11577354 -0.0245471 -0.11610542 -0.09712471 0.07388388 -0.48953116
-0.7969197 0.014083808 -0.91446745 -0.06076205 -0.52682185 -0.08602106 -0.17593208 -0.3541457
0.0055588195 -0.14449602 -0.1389927 -0.0082545 0.5631101 0.021453582 0.10243862 -0.06081273
0.466386 -0.1816947 0.6481866 0.021425148 1.2859037 0.05036912 -0.16855638 -0.1331671
0.0653885 -0.082191825 0.03210368 0.08860287 -0.09558066 0.17122367 -0.11360776 -0.025489911
-0.020375904 -0.24123138 -0.059278328 -0.6006171 0.70803875 -0.618629 0.117562614 0.08006769
-0.071280815 -0.16968003 -0.10774564 0.016395906 -0.1455111 -0.07881985 0.5023242 -0.09696702
-0.04738385 0.53394777 0.6645525 0.63781345 0.92354786 1.3054057 -0.98201567 0.40777877
0.7584608 0.1051195 0.25924042 1.2288063 0.39237684 0.1836583 0.4154666 0.5434783
0.29115462 -0.59542793 -0.9677193 0.06107238 -0.7041493 0.50588506 -0.51627934 0.104421824
0.9269327 0.78098285 -0.16075382 0.5378213 0.39541796 0.37963492 0.7664307 0.29116794
0.32248157 0.47228384 0.71048963 0.8006398 0.7025781 -0.36840197 0.798517 0.3950176
0.3867515 0.2824093 0.11240797 0.21283865 0.44119623 0.8364431 0.5716569 0.6316057
-0.12539233 0.52819645 0.35101 0.80042326 0.25052112 -0.65480417 1.049097 0.68706626
0.12829135 -0.048685987 0.38008538 0.5357262 -0.1557101 0.21726546 0.32171175 0.023739833
0.73169035 0.91066 0.56657135 0.48820087 0.5003688 0.40752715 0.23708896 -0.6534401
-1.2424535 0.38152453 0.41116935 0.26928258 0.15493155 0.42222336 0.3521881 0.23107581
0.43845132 0.516196 0.20904744 0.8534276 -0.8820877 0.18641374 0.91824955 0.21822521
0.8065245 0.16227001 0.47047666 0.5746479 -0.07643055 0.39754182 0.39810374 0.23920622
0.42030612 0.062235214 0.17953649 0.35915875 0.45703614 0.48509315 0.5925897 1.3250365
-0.7753963 0.17560136 0.29067647 0.14567012 0.15592876 0.20563725 0.1946675 0.54076415
0.3764541 0.58511573 -0.023028094 0.49087664 0.29017752 0.73433894 0.28823566 0.7623383
0.8171619 1.185396 0.24248236 0.060430016 0.18032627 0.26392052 0.0023956846 0.14897957
0.30710804 0.1280553 0.42163548 0.11566136 0.30223048 0.21742195 0.21590282 0.21128891
1.4204378 1.3849416 1.6038718 0.28061825 0.2627509 0.045762293 0.117880374 -0.5543045
0.26989582 0.07822577 0.23593083 0.57780606 0.24342282 -0.08402971 -0.16819823 0.25198424
-0.47812417 0.26393673 0.20470211 0.15975903 0.33717147 -0.8514213 0.18076356 0.15682463
0.529074 0.19083756 0.16359055 0.078566365 0.16217738 0.4364725 0.06926771 0.34312832
0.054278273 -0.92026705 0.006104716 0.26406848 0.25790274 0.18180276 0.090706155 0.22689404
0.09222872 -0.675087 0.5740953 -0.73485553 0.073332466 0.49675798 0.22165523 -0.18897527
0.058025558 0.2890012 0.039183106 -0.21861535 0.42628267 0.1569481 0.5160857 0.6788578
00000000: 56b9 55be c715 153f 579c 3fbf 4afc 923f
00000010: 9990 f93e 22f6 f53c 1554 7abe 761f 0dbe
00000020: bfe0 0bbe e449 d03f ae1a edbd 0017 c9bc
00000030: aec8 edbd 52e9 c6bd 6f50 973d d4a3 fabe
00000040: ee02 4cbf c6bf 663c 8a1a 6abf a1e1 78bd
00000050: ccdd 06bf cf2b b0bd 8a27 34be 9652 b5be
00000060: c226 b63b c4f6 13be 1a54 0ebe e23d 07bc
00000070: fc27 103f 6cbf af3c 57cb d13d c516 79bd
00000080: 25ca ee3e 2d0e 3abe 8fef 253f cb83 af3c
00000090: 7e98 a43f da4f 4e3d 0b9a 2cbe f55c 08be
000000a0: 68ea 853d 3054 a8bd 267f 033d 6c75 b53d
000000b0: cbbf c3bd 4255 2f3e 2fab e8bd 38d0 d0bc
000000c0: 5eeb a6bc 5c05 77be d5cd 72bd 0bc2 19bf
000000d0: 0742 353f 785e 1ebf abc4 f03d 87fa a33d
000000e0: adfb 91bd 9ac0 2dbe bfa9 dcbd b550 863c
000000f0: dd00 15be 4d6c a1bd 5298 003f a596 c6bd
00000100: 9115 42bd cdb0 083f 1d20 2a3f be47 233f
00000110: a26d 6c3f 8917 a73f 6165 7bbf 61c8 d03e
00000120: 7d2a 423f e448 d73d 29bb 843e 8649 9d3f
00000130: 9ee5 c83e ec10 3c3e 0ab8 d43e 6521 0b3f
00000140: 3812 953e f76d 18bf 74bc 77bf 0827 7a3d
00000150: 2143 34bf af81 013f e22a 04bf 1cdb d53d
00000160: 764b 6d3f 7eee 473f a69c 24be a8ae 093f
00000170: 3974 ca3e 825f c23e cd34 443f f713 953e
00000180: 4e1c a53e 30cf f13e a6e2 353f bbf6 4c3f
00000190: 29dc 333f 2f9f bcbe 9c6b 4c3f bf3f ca3e
000001a0: 4b04 c63e f497 903e 2636 e63d 60f2 593e
000001b0: 79e4 e13e 2321 563f 1b58 123f e9b0 213f
000001c0: d966 00be e237 073f 95b7 b33e 8ae8 4c3f
000001d0: 4e44 803e 3fa1 27bf cf48 863f 93e3 2f3f
000001e0: cf5e 033e f56a 47bd 8d9a c23e 5a25 093f
000001f0: 7872 1fbe d67a 5e3e 67b7 a43e 0a7a c23c
00000200: 0f50 3b3f 0421 693f d20a 113f 77f5 f93e
00000210: 2b18 003f 66a7 d03e 73c7 723e da47 27bf
00000220: b708 9fbf 2f57 c33e ca84 d23e 68df 893e
00000230: 60a6 1e3e a92d d83e 0052 b43e 239f 6c3e
00000240: b17c e03e 6c25 043f 8810 563e 3b7a 5a3f
00000250: 80d0 61bf 3ee3 3e3e 6712 6b3f 6e76 5f3e
00000260: 6478 4e3f 1c2a 263e 51e2 f03e 201c 133f
00000270: 9f87 9cbd 9a8a cb3e 41d4 cb3e 7af2 743e
00000280: 5d32 d73e 5aea 7e3d 6ad8 373e a8e3 b73e
00000290: a400 ea3e 215e f83e f5b3 173f cc9a a93f
000002a0: 5f80 46bf d8d0 333e 8cd3 943e 8c2a 153e
000002b0: caab 1f3e 9292 523e eb56 473e 856f 0a3f
000002c0: 97be c03e 25ca 153f 6aa5 bcbc 2f54 fb3e
000002d0: 2692 943e a3fd 3b3f a093 933e 9a28 433f
000002e0: 8631 513f 0ebb 973f 4c4d 783e 7785 773d
000002f0: 73a7 383e 9720 873e eb00 1d3b 1a8e 183e
00000300: 443d 9d3e ee20 033e 9be0 d73e dddf ec3d
00000310: f4bd 9a3e dca3 5e3e a115 5d3e 1f5c 583e
00000320: e8d0 b53f c445 b13f ac4b cd3f 32ad 8f3e
00000330: 4987 863e 3e71 3b3d 446b f13d e6e6 0dbf
00000340: c92f 8a3e d534 a03d da97 713e 19eb 133f
00000350: d543 793e c517 acbd 283c 2cbe 1404 813e
00000360: b1cc f4be b722 873e 6e9d 513e df97 233e
00000370: bda1 ac3e bff6 59bf 151a 393e a396 203e
00000380: 6571 073f ec6a 433e 4884 273e 67e7 a03d
00000390: d411 263e 5379 df3e 3bdc 8d3d 84ae af3e
000003a0: e552 5e3d 9f96 6bbf 120a c83b fc33 873e
000003b0: d40b 843e 812a 3a3e 26c4 b93d e956 683e
000003c0: 69e2 bc3d 80d2 2cbf e9f7 123f 7e1f 3cbf
000003d0: 552f 963d 1057 fe3e 97f9 623e bc82 41be
000003e0: 35ac 6d3d f7f7 933e 777e 203d b4dc 5fbe
000003f0: b941 da3e 01b7 203e 311e 043f a0c9 2d3f

l1.bias f4 [8]
0.8252438 0.9818265 0.8520598 0.9230255 1.0618287 -0.12451961 1.1438099 0.96684515
00000000: 2d43 533f fb58 7b3f 9720 5a3f 664b 6c3f
00000010: 01ea 873f 2304 ffbd 5d68 923f 2a83 773f

l2.weight f4 [8, 8]
1.3811865 -0.15437628 -0.94108945 0.9552936 0.47336537 -0.29563662 1.3301616 -0.39274114
-0.6280257 0.17956108 0.12556326 0.10509382 -1.0880309 -0.106702626 -0.750687 0.8945331
-1.210876 -0.4534381 1.0344998 0.101736374 -0.122710645 0.24809973 0.12604669 1.3363351
1.2253859 1.7915195 -0.4885083 1.6100334 -0.2872218 0.098573245 -0.22053821 -0.59090525
0.67874306 1.0353938 1.4903351 -1.215434 0.77951515 -0.14004533 0.7170771 -0.8808333
0.3097685 1.1578022 1.4134705 1.052048 -1.2608831 0.21073255 -0.52660334 1.2940736
-1.0626022 0.15068674 0.81526095 1.0825481 -0.27276662 0.14127563 -1.0737681 0.08465498
-0.009119893 -0.593527 -1.1003276 1.5629975 1.1822411 0.024665564 1.2968532 1.0434353
00000000: b8ca b03f d114 1ebe 3deb 70bf 1f8e 743f
00000010: f25c f23e af5d 97be bc42 aa3f 5e15 c9be
00000020: 4bc6 20bf dcde 373e a893 003e 6e3b d73d
00000030: 9944 8bbf e886 dabd 062d 40bf 1f00 653f
00000040: fcfd 9abf 0a29 e8be 7d6a 843f 295b d03d
00000050: b84f fbbd db0d 7e3e 6212 013e 070d ab3f
00000060: 72d9 9c3f 8350 e53f c31d fabe 9315 ce3f
00000070: bc0e 93be c5e0 c93d c5d4 61be 9145 17bf
00000080: 1bc2 2d3f c987 843f 4dc3 be3f 5793 9bbf
00000090: 4e8e 473f 0b68 0fbe 5d92 373f 4b7e 61bf
000000a0: fa99 9e3e dd32 943f 9aec b43f 82a9 863f
000000b0: 9e64 a1bf 46ca 573e 7acf 06bf 34a4 a53f
000000c0: 5903 88bf a04d 1a3e f1b4 503f f090 8a3f
000000d0: 11a8 8bbe 8faa 103e 3c71 89bf 975f ad3d
000000e0: 9b6b 15bc 63f1 17bf 89d7 8cbf 4d10 c83f
000000f0: ad53 973f 700f ca3c 49ff a53f 4a8f 853f

l2.bias f4 [8]
0.24399495 -0.40514284 0.29692197 0.47005966 0.13102205 0.5884674 0.21768144 0.7243556
00000000: d0d9 793e e26e cfbe 2806 983e a9ab f03e
00000010: a52a 063e cda5 163f e2e7 5e3e 5e6f 393f

l3.weight f4 [14, 8]
0.31365836 -0.41966847 -1.3723415 0.49348548 0.46065778 -0.63250214 -1.2306092 -0.7595803
-0.870339 -1.0282348 0.12423389 -0.34237847 -0.019595144 0.17219047 0.44187456 -1.3519723
-0.60339534 -0.68783784 -0.78113484 0.38938454 -0.28538302 0.6050628 -1.6659647 -0.95580536
-1.9294933 -1.429914 -1.4295793 0.5233113 -0.43194962 0.47223893 0.6915884 -1.4339894
-2.0340564 -0.7529226 -1.2719553 0.38169515 0.8940141 -0.20374951 -1.229097 -1.5874228
-1.0416538 0.6805877 -0.0047660763 0.100892216 -1.0937485 0.4490302 0.019203061 -1.0682999
-0.8146608 -1.1786814 -0.0632293 0.2865289 -1.2265518 0.11112253 0.16755986 0.2129136
0.35297167 -1.2937591 -2.0074403 0.6151026 -1.0168152 -0.070834994 -1.2928994 0.010883193
0.7089341 -0.5237504 -1.813106 0.13023375 -1.5824829 -1.3703148 -0.36410058 0.68280876
-0.4104182 -0.86762315 0.50844735 -1.3569026 -0.48382348 0.28497922 -1.6692163 0.30546248
0.3464279 -0.11680995 -0.43152082 -1.7111447 -0.5874138 -1.6689911 -0.12523115 0.94966036
-0.9717077 0.34345654 0.5956483 -1.3982725 -1.7191896 0.24220815 0.7151181 -0.3518331
0.32973576 -0.55950606 -0.62898827 -1.472433 1.0175804 -0.9203346 -0.6440823 0.032990735
0.65206206 -0.22920857 -1.5659109 0.36763847 0.15845543 -2.04349 -0.40545803 0.11371812
00000000: d497 a03e c9de d6be e3a8 afbf 21aa fc3e
00000010: 56db eb3e a9eb 21bf 9a84 9dbf db73 42bf
00000020: 89ce 5ebf 339d 83bf 566e fe3d 3b4c afbe
00000030: ff85 a0bc b352 303e 623d e23e 6e0d adbf
00000040: 1e78 1abf 2416 30bf 74f8 47bf 695d c73e
00000050: b91d 92be 65e5 1a3f 553e d5bf a9af 74bf
00000060: a3f9 f6bf 6c07 b7bf 74fc b6bf bbf7 053f
00000070: 8028 ddbe 4dc9 f13e f00b 313f f78c b7bf
00000080: fb2d 02c0 89bf 40bf 6ecf a2bf 8c6d c33e
00000090: 1cde 643f b6a3 50be 0d53 9dbf ac30 cbbf
000000a0: e954 85bf ff3a 2e3f bf2c 9cbb 94a0 ce3d
000000b0: f3ff 8bbf 49e7 e53e bd4f 9d3c 0dbe 88bf
000000c0: 9c8d 50bf 08df 96bf 5d7e 81bd eab3 923e
000000d0: a6ff 9cbf 3694 e33d d094 2b3e 0606 5a3e
000000e0: b4b8 b43e e699 a5bf e779 00c0 5d77 1d3f
000000f0: 0027 82bf f011 91bd ba7d a5bf 6c4f 323c
00000100: b57c 353f 8214 06bf db13 e8bf ff5b 053e
00000110: cd8e cabf 7a66 afbf 646b babe 8ecc 2e3f
00000120: 5622 d2be 8d1c 5ebf 9b29 023f fcae adbf
00000130: b6b7 f7be cce8 913e e1a8 d5bf 9465 9c3e
00000140: ff5e b13e 0e3a efbd 4cf0 dcbe ca06 dbbf
00000150: c060 16bf 80a1 d5bf 983c 00be f11c 733f
00000160: d6c1 78bf 89d9 af3e 687c 183f 98fa b2bf
00000170: 680e dcbf 6a05 783e fb11 373f 7823 b4be
00000180: 20d3 a83e ca3b 0fbf 6005 21bf af78 bcbf
00000190: 1340 823f 0c9b 6bbf 94e2 24bf 4b21 073d
000001a0: 8aed 263f a7b5 6abe c56f c8bf 1c3b bc3e
000001b0: 2442 223e 8ac8 02c0 3298 cfbe 0ce5 e83d

l3.bias f4 [14]
0.1950593 0.120453596 -0.23973289 -0.3410371 0.3648401 -0.65724856 -0.20436637 -0.34849563
-0.023245197 0.022387672 0.4485072 0.121185146 0.38440952 -0.36631724
00000000: a0bd 473e 60b0 f63d 8a7c 75be 6a9c aebe
00000010: 52cc ba3e 7141 28bf 6b45 51be 056e b2be
00000020: b66c bebc 5a66 b73c bca2 e53e eb2f f83d
00000030: 53d1 c43e ef8d bbbe
